results/unet_model.onnx (onnx, 80786 bytes, 17 tensors)

decoder_blocks.2.bias f4 [64]
00000000: 24eb f73c d96d 4abd 2d1c 9f3c e148 393d
00000010: ac3d d3bc abb0 c7bc e5e6 0b3c 66de 6f3d
00000020: c6db 83bd 1837 5dbc 727f 45bd 65d6 083d
00000030: bced 66bb 5814 b8bc 1864 1a3d c3b6 77bb
00000040: 6dc3 5abb aaec 87bd 802c 503b 8915 8ebd
00000050: b2c9 b2bc 862e a2bd 19af ecbc 8dee 7a3c
00000060: 293b 6a3d ae0b 553d 3065 9cbd 3e50 81bd
00000070: f204 f0bc 715a f53c 9ae3 5abd 02fc a3bc
00000080: 51b5 b8bc e005 333d 7747 5ebc a3d9 8e3c
00000090: acfd c2bc b4ed 6f3d d9bc 253d b630 7c3c
000000a0: f2eb e1bb 1cbb ba3c c5c2 df3c 1cf6 6e3d
000000b0: 738b 1abd 46b0 5abd f329 fd3a 6c52 a53c
000000c0: 8428 983a cb4d 8e3d 781a 0dba 1d76 5c3d
000000d0: 7540 d53c 8291 253d ee19 b03c 99ad 653d
000000e0: 0f78 8dbd cf0c 63bd af1a 0e3d e815 6039
000000f0: 7e00 723d d495 573d 7a4d ba3c bf86 403d
0.030263491 -0.049421165 0.019422615 0.04523552 -0.025786243 -0.024376234 0.008538936 0.058561705
-0.06438403 -0.013501905 -0.048217244 0.033407588 -0.0035236916 -0.022470638 0.037693113 -0.0037798143
-0.0033380643 -0.06636937 0.0031764805 -0.06937701 -0.021824691 -0.0791903 -0.028892087 0.015315664
0.057185326 0.05201309 -0.076364875 -0.06314133 -0.029299233 0.029950352 -0.053439714 -0.020017628
-0.022547396 0.043706775 -0.013566843 0.017437762 -0.0238026 0.0585763 0.040463302 0.015392473
-0.006894582 0.022794299 0.027314553 0.058340177 -0.037730645 -0.053390764 0.001931487 0.020180903
0.0011608754 0.069484316 -0.00053826673 0.05382358 0.026031712 0.04042197 0.02149674 0.05607376
-0.06907665 -0.055432137 0.034693416 0.00021370465 0.0590825 0.05263312 0.022742022 0.047003504

decoder_blocks.4.bias f4 [32]
00000000: 3ad1 0dbd 7670 a4bb a0b2 db3a c640 2b3d
00000010: 9445 e2bc 277f 8dbc 1ac2 683c b6bc d13d
00000020: 0089 40bd cf07 253d 0c6e 73bd 7dcf bdbb
00000030: f264 5a3c 9a15 693d f1d1 af3d 4e0b 1dbd
00000040: 9130 0cbd 1f23 973d 66a5 f93a 7933 3d3d
00000050: 4796 ccbd 0ace 20bd 6784 013d aece 0bbd
00000060: 0cbb acbc f7e7 84bc 7e98 e5bc 6d9b 10bd
00000070: adef b43c d326 fc3c 143b b6bd c745 923c
-0.034623362 -0.005018289 0.0016761608 0.04180982 -0.027621068 -0.017272545 0.014206434 0.10241072
-0.047005653 0.04029065 -0.05943112 -0.005792557 0.013329731 0.056905366 0.08584965 -0.03834086
-0.034226004 0.07379746 0.0019046485 0.046191666 -0.09989601 -0.039258994 0.03162041 -0.034132652
-0.021085285 -0.01622389 -0.028026816 -0.035304476 0.022086943 0.030780232 -0.08897987 0.017855538

decoder_blocks.6.bias f4 [16]
00000000: 3d9f 163e da3a cf3b dca1 dcbd c677 f8bd
00000010: 76b1 97bd bf64 41bd 9467 573c 6950 e43d
00000020: 18c9 5e3d 1696 7cbd 2c4f 963d 3051 63bd
00000030: 8bb9 19bc 8bbc d3bd 3787 913d 5f54 d73d
0.14709182 0.0063241543 -0.1077306 -0.1213222 -0.07406895 -0.04721522 0.013147254 0.111481495
0.054390997 -0.06166657 0.073393196 -0.05549735 -0.009382616 -0.10338696 0.07105868 0.105141394

conv_final.weight f4 [2, 16, 1, 1]
00000000: fe5a 5b3e 710d 4cbd 224b 843e 767d f1bd
00000010: 6815 e83c 934b 5cbd 5e85 ae3d ff33 bc3d
00000020: d0e5 7d3e 3603 943e a21d 2dbe bf84 b1bc
00000030: 4b43 0e3e 81af c3bd 2d67 a2be f30a 923e
00000040: f001 eebd 0957 43be adbf 6abe 8218 853e
00000050: 4a71 3abd 00cc 633e 585f 8e3e 9b27 9ebd
00000060: a9f3 07be a01e 88be ce99 cf3d cbdb 50be
00000070: eaf7 c6bd f3c9 793d e284 f7bc 9e81 83be
0.2142143 -0.049817506 0.25838572 -0.11791508 0.02833052 -0.05378301 0.085215315 0.09189605
0.24794698 0.289087 -0.16905835 -0.021669744 0.13892858 -0.09554959 -0.31719342 0.2852398
-0.11621463 -0.1907617 -0.22924681 0.2599526 -0.045518197 0.22245789 0.27807117 -0.07722398
-0.13276543 -0.26585865 0.10136758 -0.20396344 -0.097152546 0.06098361 -0.03021473 -0.25684828

conv_final.bias f4 [2]
00000000: 71c6 7a3d 3ff6 f7bd
0.061224405 -0.121075146

encoder_blocks.0.0.weight_bias f4 [16]
00000000: 61f9 0b3d 728b 82bf 413f 363f 286b 81bf
00000010: 6b60 813f e4fa 5c3f 9835 f03e 6968 623f
00000020: 2170 66bf 99ab 84bf 898e 773f e2bc b9be
00000030: f2a6 1c3e 1ce4 6dbf 6166 39bf 416d 153f
0.034173373 -1.0198805 0.7119027 -1.0110826 1.010755 0.8632033 0.4691589 0.8844057
-0.90014845 -1.0364867 0.96701866 -0.3627692 0.1529806 -0.9292619 -0.7242184 0.58369833

encoder_blocks.0.3.weight_bias f4 [16]
00000000: f09a f0be 08eb 153f 60fc 033f b970 ce3e
00000010: 1d05 6cbe f745 1cbf b934 0b3f 2bc8 383f
00000020: 83bb 0d3f 897e e93d 0445 8cbf 6251 ccbe
00000030: 1bce 77bf c59a 8cbc 2d3f 3d3f fe94 c63e
-0.46993208 0.58561754 0.5155697 0.40320376 -0.23048826 -0.6104426 0.54377323 0.7218043
0.55364245 0.11401088 -1.0958562 -0.3990584 -0.96798867 -0.017163644 0.73924524 0.38785547

encoder_blocks.1.0.weight_bias f4 [32]
00000000: ce54 cbbe 0e7b 073f 8bb2 b13e f01d 5d3f
00000010: 3d02 25bf 5097 cf3e ba06 443f 5bf1 083e
00000020: c9bc 0bbf ea3b 9d3e 52e0 a9bf a842 543e
00000030: 4d5b 7c3e 192e 8bbf 4610 fd3e d2d7 2ebe
00000040: 5d22 393f 2fd4 913f 378f 133f 5919 1e3f
00000050: 8ba6 ce3e 7a9f 423f 2a80 343c 9d86 24bf
00000060: a57d cb3c def4 0b3f 5a66 ff3e 8999 09bf
00000070: 136b 4d3f fb13 9d3e d269 26bf 87b5 093f
-0.39713138 0.5292214 0.3470653 0.86373806 -0.6445654 0.4054513 0.76572764 0.1337332
-0.5458494 0.30709773 -1.3271582 0.20728552 0.24644203 -1.0873443 0.49426478 -0.17074516
0.7231806 1.1392878 0.57640404 0.6175743 0.40361437 0.7602459 0.011016885 -0.64267904
0.024840185 0.5467051 0.49882776 -0.537499 0.8024151 0.30679306 -0.6500522 0.53792614

encoder_blocks.1.3.weight_bias f4 [32]
00000000: 40be 4bbf 797c b1be 0e7f 0ebf ef64 ccbe
00000010: 1b13 90bf fc21 aa3d e54c 5abe 9bf8 293e
00000020: 8491 55bf f949 a4bd ca67 bb3e b4ba 93bc
00000030: 52d7 833e 9376 70be fd8b 06be 9411 433f
00000040: 5352 c3be 6873 16be 6b98 7dbf 4476 40bf
00000050: 8d65 99bd bed0 50bf 7f4d a53e ba35 fbbe
00000060: d4c6 9a3c 46f8 0cbe 8c46 c43e 2254 523e
00000070: aeb7 19bd 809a 89be 70f8 873e 2ecd 6e3e
-0.79587173 -0.34665278 -0.5566262 -0.39920756 -1.125583 0.08307263 -0.21318395 0.16598742
-0.83425164 -0.08021922 0.36602622 -0.018033363 0.25750214 -0.23482732 -0.13139339 0.761987
-0.38148746 -0.14692461 -0.99060696 -0.7518046 -0.074900724 -0.81568515 0.32285687 -0.49064428
0.018893637 -0.13766584 0.38335073 0.20539907 -0.037528686 -0.26875687 0.2655673 0.23320457

encoder_blocks.2.0.weight_bias f4 [64]
00000000: a605 9d3f 49e0 4d3f 34b8 77be 7da8 dcbc
00000010: 11a3 f13e fc7e 0bbe e534 ad3f 82eb afbf
00000020: d897 5f3e b5e1 7bbe 69f6 d93d 5b7a 01bf
00000030: 7677 b5be 9351 bcbe 8c46 3ebf 9c67 963f
00000040: c6d3 88be 7c9f 25bd 79a5 bf3f 8471 90be
00000050: 3b9c 4e3e 3f71 723e 8cc1 8c3f 0110 e53e
00000060: d962 30bf 5724 26bf d59e fc3d 0dd6 023f
00000070: aba3 843f 207e f53d 675c cfbe d20a 02bf
00000080: 5bbc d6be 32b3 e0bd 4106 183e 6851 853f
00000090: 1cf1 dd3c 8283 c23e 9bb8 3abf b443 97bd
000000a0: a36a 4c3f bd5e d33e 4e23 0b3f f79e 44bd
000000b0: 4ba4 8b3f 6f10 90be 7806 d13e 8bb6 0f3f
000000c0: 6119 5cbf 7370 46bc ae6c b03e 3e75 71be
000000d0: d41d a03e a6c4 d0be 5c89 1dbd da32 04bf
000000e0: 68ba b53f f7c7 f23e fda9 dc3e 9b08 233e
000000f0: 94ac 6c3f 3851 25be 6f59 04be dda1 be3e
1.2267349 0.80420357 -0.24191362 -0.02693581 0.47194722 -0.1362266 1.3531767 -1.3743746
0.21835268 -0.24597819 0.10642702 -0.50577325 -0.35442704 -0.36780986 -0.74326396 1.1750369
-0.2672407 -0.0404353 1.4972373 -0.28211606 0.20176785 0.23676012 1.0996566 0.44738773
-0.6890083 -0.648992 0.12334982 0.51107866 1.0362448 0.11986947 -0.40500185 -0.5079776
-0.4194058 -0.10971679 0.14846136 1.0415468 0.027092509 0.37990957 -0.72937936 -0.0738596
0.79850215 0.41283217 0.54350746 -0.048003163 1.0909513 -0.28137538 0.40825248 0.56137913
-0.85976225 -0.012111771 0.34457916 -0.2357988 0.31272757 -0.4077503 -0.038461074 -0.51640093
1.4197512 0.47418186 0.4309844 0.15921251 0.92450833 -0.16144264 -0.12924741 0.37232867

encoder_blocks.2.3.weight_bias f4 [64]
00000000: 7384 653f db03 583f 779d 863e 3546 893e
00000010: e5f2 163f b2c3 8d3e 0864 efbe 0f58 873e
00000020: db86 1dbe 6016 7e3f f966 e3be 2f45 2dbf
00000030: 38e7 abbe 26ef f3bc ee65 583f 4516 9bbe
00000040: 7557 373f 39ad 643f d12e b93e b9d1 163f
00000050: 21f1 d03e d2fb f23d 8096 b43e 35e2 473d
00000060: eafe d63e 0177 983f 7f8b 6c3f 2619 913f
00000070: ab52 213f 5d64 c83e 7106 b23e 769d 4fbf
00000080: 41d9 2d3f 86b1 3b3f d9d7 783b 4327 7f3f
00000090: fd6d 463f 0e6f d83f dc0e d0be 0efa 91bd
000000a0: 7203 42be d2c4 80bf 1e6d 213f 89f0 fcbe
000000b0: 7ae4 a33f 9780 ff3e 1956 553f 89cf c83e
000000c0: 795e 693f f3a7 84bf b33a 9b3f 6d5b 07be
000000d0: 1cc1 043f 1b22 133f dcc5 093e a4c3 7a3e
000000e0: 3b66 aabf a736 5d3f bbd6 103f 1c28 803f
000000f0: 8e39 81be 181f 663e aac6 25bf 4322 17be
0.89655226 0.8438088 0.2629201 0.26811376 0.5896438 0.27688366 -0.46756005 0.2643437
-0.15383475 0.9925289 -0.444145 -0.6768369 -0.33574843 -0.02977712 0.8453053 -0.30290428
0.71617824 0.89326817 0.3616853 0.5891376 0.40808967 0.11864437 0.35271072 0.048799712
0.4199136 1.1911317 0.92400354 1.13358 0.63016766 0.3913907 0.3477054 -0.8109964
0.6790963 0.73317754 0.0037970452 0.99669284 0.7751158 1.6908891 -0.40636337 -0.07127772
-0.18946627 -1.0060065 0.63057125 -0.49402264 1.28041 0.49902794 0.833345 0.39220837
0.9115978 -1.0363754 1.2127289 -0.1321847 0.5185716 0.57473916 0.13454384 0.24488693
-1.3312448 0.8641152 0.5657765 1.001224 -0.25239223 0.22472799 -0.6475626 -0.14759164

decoder_blocks.3.0.weight_bias f4 [64]
00000000: 5643 833e 363b d6bd d67c 42be bcd7 4d3f
00000010: 4fe3 203f 86ab d93e ded4 143e 9dc3 133b
00000020: 11ba bd3e b1ec a23d 99e4 f13e d05c b63d
00000030: 2e25 b83e d7b3 29be 1bd3 2b3f 6830 093f
00000040: 2fc4 033f b457 b5bd b80d 5ebe 4d95 063e
00000050: f67d 0f3f 446a df3e 4373 073e 6a94 84bd
00000060: 6b8b 403f 0683 be3e cb13 663f c85d 513f
00000070: b63b 62be 3891 2f3f 669a 3b3e a4c9 213f
00000080: 20e5 393f 52e4 11be 5bb6 193e ff3d 3a3f
00000090: bf66 213f 4131 5c3e bf47 bd3d 57cd cb3d
000000a0: 9da3 7c3f f7b3 773e 4a1d b1bb a07e 193e
000000b0: 8174 bc3e 8577 4abf 45bf 6e3e e58e 6d3e
000000c0: 1c1d 993f 23ab d43e d914 0d3f a4b0 1dbd
000000d0: caa6 19bf 0be0 4e3f e4ee 8b3d 90d4 3fbd
000000e0: 399f 943e 29c5 a83e 1f90 d93e e1e7 eb3e
000000f0: 0760 38bf 12d4 3fbf 66a6 a93d f67c 483f
0.2563731 -0.10460512 -0.18992934 0.8040731 0.62846845 0.42513674 0.14534327 0.0022547015
0.3705602 0.079553016 0.4724472 0.08904421 0.35965866 -0.1657251 0.67118996 0.5358949
0.5147123 -0.08854619 -0.21684921 0.13142891 0.56051576 0.43635762 0.13227563 -0.0647362
0.75212735 0.37209338 0.8987395 0.81783724 -0.2209309 0.6858096 0.18320617 0.63198304
0.7261524 -0.14247254 0.1501097 0.7275085 0.63047403 0.21503164 0.092422 0.09951275
0.98687154 0.24189745 -0.005405103 0.1498971 0.36807635 -0.7908862 0.23315151 0.23199041
1.1962008 0.41536817 0.55109936 -0.038498536 -0.60020125 0.8081061 0.06832674 -0.046833575
0.29027727 0.3296292 0.42492768 0.46075347 -0.72021526 -0.7493297 0.08283691 0.78315675

decoder_blocks.3.3.weight_bias f4 [64]
00000000: c8de a43f 0c09 7a3f a831 9f3f ccbe b53f
00000010: 921e a93f 534c 38be 25cd 203f d23e d33f
00000020: 20ee 903f 9bf4 3f3f 61a6 923f 036d 893f
00000030: 5a11 e13f 5ebf 8a3f 5c78 0440 c388 b33f
00000040: 1ee0 fb3f 0a6e e63f 6d73 913f 6a12 0440
00000050: 001f ef3e 5420 b03f 2ee2 2e3f 7adc a43f
00000060: 0f4c 11bd ea8b 403f 5520 b93f b2bf b43f
00000070: f667 6e3f 841c 803f a997 3b3f 842b d23f
00000080: 7aa2 233f 2d0b eb3d fabe 683f 3a96 af3f
00000090: 288d 623f f992 403f 1d3a 0c3f 5e32 dc3f
000000a0: 1bd4 853f ac7c 0c40 23e5 633f e116 fc3c
000000b0: ec1b de3e 9482 a53f 6b2b 913f d3bc 4d3f
000000c0: 33d5 f43f 9dd3 1240 bcc4 0040 008a fb3e
000000d0: ed55 ab3f 25e4 fd3f a8cf 8b3f 2944 4c3f
000000e0: ae19 413f a32c 543f 9d8f 0040 cb1b 9e3e
000000f0: 38b4 df3f 9637 9c3e 2d79 b93f 6e54 db3f
1.2880487 0.97670054 1.2437029 1.4198852 1.3212454 -0.17997865 0.62813026 1.6503546
1.132267 0.74982613 1.1457025 1.0736393 1.758342 1.0839651 2.0698462 1.4026111
1.967777 1.8002331 1.136335 2.063624 0.4670334 1.3759866 0.6831387 1.2879784
-0.035472926 0.7521349 1.4462992 1.4121001 0.9312738 1.0008702 0.7327829 1.641953
0.63919795 0.11476741 0.9091641 1.371772 0.8849664 0.7522426 0.54776174 1.7202871
1.0455354 2.1951094 0.8902151 0.030772628 0.43380678 1.2930474 1.1341375 0.8036625
1.9127563 2.2941658 2.0120077 0.49128723 1.3385597 1.9835249 1.0922747 0.79791504
0.7542981 0.8288061 2.0087655 0.3088058 1.7476873 0.3051116 1.4490105 1.7135141

decoder_blocks.5.0.weight_bias f4 [32]
00000000: 56cd 1bbd 5afa a33e 479b a9bc dcdc 8bbe
00000010: 0ee0 2a3d 9522 f83e 856a 88be 8a8e 85be
00000020: 59dc 4bbe 1305 183e c1e8 ae3e 5ea9 a03e
00000030: 5ed3 8c3e f1d0 bbbe 87ff 7c3e bef1 9bbe
00000040: 1d94 9d3e 085c 7a3e a603 eebe f0f0 073f
00000050: bcf0 55be d196 be3e 5d26 75be bdf7 793c
00000060: d270 81bc cb94 febd 8258 c33e 80eb 693e
00000070: 50fc d53e 549f f63e 9902 423e 2489 89bb
-0.03803762 0.3202694 -0.020703925 -0.2731694 0.04171758 0.48463884 -0.26643768 -0.2608531
-0.19908275 0.14845686 0.34161952 0.31379217 0.2750501 -0.36682847 0.24706851 -0.30457872
0.30777064 0.2444917 -0.4648716 0.53102016 -0.20892614 0.3722444 -0.23940416 0.015256819
-0.015800867 -0.12430724 0.38153464 0.22843742 0.41794062 0.48168433 0.18946303 -0.0041972566

decoder_blocks.5.3.weight_bias f4 [32]
00000000: 01f4 2140 5e6a 003f e57f 8b3e ddeb 393f
00000010: 1acf d73e 9c39 633f faf4 053f 9143 273f
00000020: 2c95 a13f 590e cc3f c08c ac3e 5cd7 1f3f
00000030: 01eb 0bbe fefc ed3e 7b3b b13e 64c9 ebbd
00000040: f327 d73f 2497 803f b905 603e 5662 88be
00000050: 69bc 843e 2477 343d b84a 743f cce1 823f
00000060: 4d50 273f 7cef 083f 5246 193f 2e6f 2c3f
00000070: 5105 093f 2d1b 83bd 1254 2c3e ae2a a13e
2.5305178 0.50162303 0.27246013 0.72625524 0.42150193 0.8875978 0.5232693 0.65337473
1.2623649 1.5941879 0.33701134 0.6243799 -0.13663866 0.4648208 0.34615692 -0.115130216
1.6809067 1.0046124 0.21877183 -0.26637524 0.25924996 0.044058934 0.9542651 1.0225158
0.65356904 0.53490424 0.59872925 0.67357147 0.5352374 -0.06401668 0.16828945 0.31477875

decoder_blocks.7.0.weight_bias f4 [16]
00000000: 1655 9ebe 06ff a73e 34e8 00bf 886b 35bd
00000010: bcec 073d 68cc b7be f636 7abe 7a43 c93e
00000020: d2b1 e53e d754 063f 390e 6dbe 34cf b73e
00000030: eee2 0a3f f8e6 e23e e183 b0be fafc fdbe
-0.3092429 0.32811755 -0.50354314 -0.044292003 0.033184752 -0.35898137 -0.24435028 0.39309293
0.4486223 0.52473205 -0.23149957 0.3590027 0.5425252 0.4431684 -0.34475616 -0.49607068

decoder_blocks.7.3.weight_bias f4 [16]
00000000: 6706 34bf 086b 29bf b91b 29bf 2fca a93d
00000010: 133a 41bf c87e dc3c a75d 243f bc29 42bf
00000020: bed6 33bf e6c7 2cbf d54d c73e 1e2b 1dbf
00000030: 0f44 38bf 0bf2 9f3e 7b00 bf3e 67e3 5abf
-0.7032227 -0.6617894 -0.66057926 0.082905166 -0.7547924 0.026915923 0.642054 -0.7584493
-0.70249546 -0.6749252 0.3892657 -0.61393917 -0.7197885 0.31239352 0.37305054 -0.8550324
